src/trained_models/simple_nn_model.pth (torch, 3224 bytes, 5 tensors)

net.0.weight f4 [10, 2]
0.010358399 0.3988151 -0.0067521376 -0.6628097 -0.1031553 -0.24340948 0.69180685 0.14038539
0.21654364 -0.2224695 -0.6747491 0.291509 -0.5030618 -0.4299584 0.84734076 -0.72041595
0.21848838 0.7083064 0.81534535 -0.44219586
00000000: 46b6 293c 7e31 cc3e 0941 ddbb e6ad 29bf
00000010: 1643 d3bd 5640 79be 411a 313f 30c1 0f3e
00000020: 9ebd 5d3e 0bcf 63be 5bbc 2cbf ab40 953e
00000030: a8c8 00bf 8223 dcbe 53eb 583f 2e6d 38bf
00000040: 6bbb 5f3e 9153 353f 79ba 503f 7f67 e2be

net.0.bias f4 [10]
-0.30356827 0.14523333 0.28800178 -0.18487133 0.3324587 0.6074114 0.7604365 -0.27076772
0.2034757 -0.24847847
00000000: 4d6d 9bbe 0cb8 143e f874 933e e94e 3dbe
00000010: 0738 aa3e 507f 1b3f f7ab 423f 11a2 8abe
00000020: ef5b 503e 2471 7ebe

net.2.weight f4 [10, 10]
-0.3650053 -0.0011408123 0.1414214 0.24077024 0.22465508 0.43802714 0.15885633 0.43040606
-0.1218495 0.075154625 -0.46520135 0.28976834 0.36916542 0.39627096 -0.012595455 0.03608879
0.22140394 -0.1316667 0.3124027 -0.13033289 -0.34811246 0.29821685 -0.046253063 -0.17044766
0.14734331 0.12983376 0.36487028 0.3083766 0.20121726 -0.058966357 0.042398922 -0.10309122
0.03724647 0.0022985921 -0.1976304 0.06849425 -0.00282064 -0.20753129 -0.21885757 0.052226536
-0.300168 0.36758783 0.27458566 -0.10093855 0.113103725 0.46135083 0.07295237 -0.13372056
0.06618654 0.4604369 0.040116884 -0.38374195 -0.40672436 0.19108193 0.07382226 -0.12487705
0.10888733 0.001289974 -0.3547606 0.024153585 -0.0010946539 0.206376 -0.17545404 0.2660103
-0.26975226 -0.18562846 0.20564719 -0.27194434 -0.28684956 0.23882592 -0.4324117 0.024708731
0.16022293 -0.02184062 0.15861617 0.12889703 0.447208 0.36854824 -0.044996284 0.37131345
-0.3354401 0.21224616 0.42105547 0.25785893 -0.17600136 0.32040334 0.10353216 0.0066498397
0.2656477 0.08286974 -0.24425054 0.034614813 0.32198817 0.36216545 0.042869985 -0.07336267
0.18472406 0.3820373 -0.09152553 0.09636782
00000000: fae1 babe 4f87 95ba c5d0 103e 798c 763e
00000010: fb0b 663e 1845 e03e 3cab 223e 2f5e dc3e
00000020: 3b8c f9bd abea 993d df2e eebe 845c 943e
00000030: 4003 bd3e 07e4 ca3e 2b5d 4ebc d7d1 133d
00000040: b7b7 623e a3d3 06be 3ff3 9f3e fc75 05be
00000050: cc3b b2be e1af 983e da73 3dbd d589 2ebe
00000060: 2ae1 163e 24f3 043e 47d0 ba3e 8ae3 9d3e
00000070: e60b 4e3e b586 71bd 7eaa 2d3d 7d21 d3bd
00000080: c18f 183d faa3 163b a05f 4abe b746 8c3d
00000090: 7dda 38bb 1583 54be 331c 60be 7eeb 553d
000000a0: 9faf 99be 7934 bc3e 7e96 8c3e dfb8 cebd
000000b0: eda2 e73d 2d36 ec3e 0d68 953d 0bee 08be
000000c0: cf8c 873d 63be eb3e 9a51 243d d379 c4be
000000d0: 2d3e d0be fbaa 433e 2030 973d 8abf ffbd
000000e0: 5200 df3d 5814 a93a 2ea3 b5be bddd c53c
000000f0: 7d7a 8fba 3b54 533e 39aa 33be 8132 883e
00000100: f81c 8abe 6315 3ebe 2d95 523e 4a3c 8bbe
00000110: f2dd 92be c88e 743e 1165 ddbe f769 ca3c
00000120: 7b11 243e 1aeb b2bc 476c 223e 95fd 033e
00000130: 72f8 e43e 5bb2 bc3e 064e 38bd cc1c be3e
00000140: cebe abbe 0f57 593e 9594 d73e 1606 843e
00000150: b339 34be e80b a43e ab08 d43d e6e6 d93b
00000160: fa02 883e 9cb7 a93d d01c 7abe 43c8 0d3d
00000170: a2db a43e c06d b93e 7098 2f3d 2b3f 96bd
00000180: 4e28 3d3e 659a c33e bd71 bbbd 7e5c c53d

net.2.bias f4 [10]
0.08621115 0.14869636 -0.023932269 -0.07932769 0.009128045 0.20224391 -0.3599255 0.41926447
0.22786485 0.179524
00000000: 798f b03d dc43 183e 9b0d c4bc 8e76 a2bd
00000010: cc8d 153c 0719 4f3e 2848 b8be d5a9 d63e
00000020: 6755 693e 24d5 373e

net.4.weight f4 [1, 10]
-0.2316483 -0.2753606 -0.26394472 0.0015818515 -0.42662492 0.16938767 0.15608624 -0.3220455
-0.36147723 -0.3781746
00000000: 3635 6dbe 11fc 8cbe c323 87be 2156 cf3a
00000010: 956e dabe f673 2d3e 12d5 1f3e 26e3 a4be
00000020: 8b13 b9be 1aa0 c1be
